…
        },
        "outputId": "f8bd71e1-5b5a-43b7-e58e-41ef150974aa"
      },
      "source": [
        "#Initialising the model\n",
        "device = torch.device(\"cuda:0\" if torch.cuda.is_available() else \"cpu\")\n",
        "# device = torch.device(\"cpu\")\n",
        "model = ResNet34().to(device)\n",
        "print(model)\n",
        "\n",
        "optimizer = optim.Adam(model.parameters(), lr=0.001, weight_decay=0.0001)"
      ],
      "execution_count": null,
      "outputs": [
        {
          "output_type": "stream",
          "text": [
            "ResNet34(\n",
            "  (conv1): Conv1d(1, 64, kernel_size=(7,), stride=(2,), padding=(3,))\n",
            "  (bnorm1): BatchNorm1d(64, eps=1e-05, momentum=0.1, affine=True, track_running_stats=True)\n",
            "  (resblock0): ResBlock(\n",
            "    (block0): BaseBlock(\n",
            "      (conv1): Conv1d(64, 64, kernel_size=(3,), stride=(2,), padding=(1,))\n",
            "      (conv2): Conv1d(64, 64, kernel_size=(3,), stride=(1,), padding=(1,))\n",
            "      (convd): Conv1d(64, 64, kernel_size=(1,), stride=(2,))\n",
            "      (bnorm1): BatchNorm1d(64, eps=1e-05, momentum=0.1, affine=True, track_running_stats=True)\n",
            "      (bnorm2): BatchNorm1d(64, eps=1e-05, momentum=0.1, affine=True, track_running_stats=True)\n",
            "    )\n",
            "    (res): ModuleList(\n",
            "      (0): BaseBlock(\n",
            "        (conv1): Conv1d(64, 64, kernel_size=(3,), stride=(1,), padding=(1,))\n",
            "        (conv2): Conv1d(64, 64, kernel_size=(3,), stride=(1,), padding=(1,))\n",
            "        (bnorm1): BatchNorm1d(64, eps=1e-05, momentum=0.1, affine=True, track_running_stats=True)\n",
            "        (bnorm2): BatchNorm1d(64, eps=1e-05, momentum=0.1, affine=True, track_running_stats=True)\n",
            "      )\n",
            "      (1): BaseBlock(\n",
            "        (conv1): Conv1d(64, 64, kernel_size=(3,), stride=(1,), padding=(1,))\n",
            "        (conv2): Conv1d(64, 64, kernel_size=(3,), stride=(1,), padding=(1,))\n",
            "        (bnorm1): BatchNorm1d(64, eps=1e-05, momentum=0.1, affine=True, track_running_stats=True)\n",
            "        (bnorm2): BatchNorm1d(64, eps=1e-05, momentum=0.1, affine=True, track_running_stats=True)\n",
            "      )\n",
            "      (2): BaseBlock(\n",
            "        (conv1): Conv1d(64, 64, kernel_size=(3,), stride=(1,), padding=(1,))\n",
            "        (conv2): Conv1d(64, 64, kernel_size=(3,), stride=(1,), padding=(1,))\n",
            "        (bnorm1): BatchNorm1d(64, eps=1e-05, momentum=0.1, affine=True, track_running_stats=True)\n",
            "        (bnorm2): BatchNorm1d(64, eps=1e-05, momentum=0.1, affine=True, track_running_stats=True)\n",
            "      )\n",
            "    )\n",
            "  )\n",
            "  (resblock1): ResBlock(\n",
            "    (block0): BaseBlock(\n",
            "      (conv1): Conv1d(64, 128, kernel_size=(3,), stride=(2,), padding=(1,))\n",
            "      (conv2): Conv1d(128, 128, kernel_size=(3,), stride=(1,), padding=(1,))\n",
            "      (convd): Conv1d(64, 128, kernel_size=(1,), stride=(2,))\n",
            "      (bnorm1): BatchNorm1d(128, eps=1e-05, momentum=0.1, affine=True, track_running_stats=True)\n",
            "      (bnorm2): BatchNorm1d(128, eps=1e-05, momentum=0.1, affine=True, track_running_stats=True)\n",
            "    )\n",
            "    (res): ModuleList(\n",
            "      (0): BaseBlock(\n",
            "        (conv1): Conv1d(128, 128, kernel_size=(3,), stride=(1,), padding=(1,))\n",
            "        (conv2): Conv1d(128, 128, kernel_size=(3,), stride=(1,), padding=(1,))\n",
            "        (bnorm1): BatchNorm1d(128, eps=1e-05, momentum=0.1, affine=True, track_running_stats=True)\n",
            "        (bnorm2): BatchNorm1d(128, eps=1e-05, momentum=0.1, affine=True, track_running_stats=True)\n",
            "      )\n",
            "      (1): BaseBlock(\n",
            "        (conv1): Conv1d(128, 128, kernel_size=(3,), stride=(1,), padding=(1,))\n",
            "        (conv2): Conv1d(128, 128, kernel_size=(3,), stride=(1,), padding=(1,))\n",
            "        (bnorm1): BatchNorm1d(128, eps=1e-05, momentum=0.1, affine=True, track_running_stats=True)\n",
            "        (bnorm2): BatchNorm1d(128, eps=1e-05, momentum=0.1, affine=True, track_running_stats=True)\n",
            "      )\n",
            "      (2): BaseBlock(\n",
            "        (conv1): Conv1d(128, 128, kernel_size=(3,), stride=(1,), padding=(1,))\n",
            "        (conv2): Conv1d(128, 128, kernel_size=(3,), stride=(1,), padding=(1,))\n",
            "        (bnorm1): BatchNorm1d(128, eps=1e-05, momentum=0.1, affine=True, track_running_stats=True)\n",
            "        (bnorm2): BatchNorm1d(128, eps=1e-05, momentum=0.1, affine=True, track_running_stats=True)\n",
            "      )\n",
            "      (3): BaseBlock(\n",
            "        (conv1): Conv1d(128, 128, kernel_size=(3,), stride=(1,), padding=(1,))\n",
            "        (conv2): Conv1d(128, 128, kernel_size=(3,), stride=(1,), padding=(1,))\n",
            "        (bnorm1): BatchNorm1d(128, eps=1e-05, momentum=0.1, affine=True, track_running_stats=True)\n",
            "        (bnorm2): BatchNorm1d(128, eps=1e-05, momentum=0.1, affine=True, track_running_stats=True)\n",
            "      )\n",
            "    )\n",
            "  )\n",
            "  (resblock2): ResBlock(\n",
            "    (block0): BaseBlock(\n",
            "      (conv1): Conv1d(128, 256, kernel_size=(3,), stride=(2,), padding=(1,))\n",
            "      (conv2): Conv1d(256, 256, kernel_size=(3,), stride=(1,), padding=(1,))\n",
            "      (convd): Conv1d(128, 256, kernel_size=(1,), stride=(2,))\n",
            "      (bnorm1): BatchNorm1d(256, eps=1e-05, momentum=0.1, affine=True, track_running_stats=True)\n",
            "      (bnorm2): BatchNorm1d(256, eps=1e-05, momentum=0.1, affine=True, track_running_stats=True)\n",
            "    )\n",
            "    (res): ModuleList(\n",
            "      (0): BaseBlock(\n",
            "        (conv1): Conv1d(256, 256, kernel_size=(3,), stride=(1,), padding=(1,))\n",
            "        (conv2): Conv1d(256, 256, kernel_size=(3,), stride=(1,), padding=(1,))\n",
            "        (bnorm1): BatchNorm1d(256, eps=1e-05, momentum=0.1, affine=True, track_running_stats=True)\n",
            "        (bnorm2): BatchNorm1d(256, eps=1e-05, momentum=0.1, affine=True, track_running_stats=True)\n",
            "      )\n",
            "      (1): BaseBlock(\n",
            "        (conv1): Conv1d(256, 256, kernel_size=(3,), stride=(1,), padding=(1,))\n",
            "        (conv2): Conv1d(256, 256, kernel_size=(3,), stride=(1,), padding=(1,))\n",
            "        (bnorm1): BatchNorm1d(256, eps=1e-05, momentum=0.1, affine=True, track_running_stats=True)\n",
            "        (bnorm2): BatchNorm1d(256, eps=1e-05, momentum=0.1, affine=True, track_running_stats=True)\n",
            "      )\n",
            "      (2): BaseBlock(\n",
            "        (conv1): Conv1d(256, 256, kernel_size=(3,), stride=(1,), padding=(1,))\n",
            "        (conv2): Conv1d(256, 256, kernel_size=(3,), stride=(1,), padding=(1,))\n",
            "        (bnorm1): BatchNorm1d(256, eps=1e-05, momentum=0.1, affine=True, track_running_stats=True)\n",
            "        (bnorm2): BatchNorm1d(256, eps=1e-05, momentum=0.1, affine=True, track_running_stats=True)\n",
            "      )\n",
            "      (3): BaseBlock(\n",
            "        (conv1): Conv1d(256, 256, kernel_size=(3,), stride=(1,), padding=(1,))\n",
            "        (conv2): Conv1d(256, 256, kernel_size=(3,), stride=(1,), padding=(1,))\n",
            "        (bnorm1): BatchNorm1d(256, eps=1e-05, momentum=0.1, affine=True, track_running_stats=True)\n",
            "        (bnorm2): BatchNorm1d(256, eps=1e-05, momentum=0.1, affine=True, track_running_stats=True)\n",
            "      )\n",
            "      (4): BaseBlock(\n",
            "        (conv1): Conv1d(256, 256, kernel_size=(3,), stride=(1,), padding=(1,))\n",
            "        (conv2): Conv1d(256, 256, kernel_size=(3,), stride=(1,), padding=(1,))\n",
            "        (bnorm1): BatchNorm1d(256, eps=1e-05, momentum=0.1, affine=True, track_running_stats=True)\n",
            "        (bnorm2): BatchNorm1d(256, eps=1e-05, momentum=0.1, affine=True, track_running_stats=True)\n",
            "      )\n",
            "      (5): BaseBlock(\n",
            "        (conv1): Conv1d(256, 256, kernel_size=(3,), stride=(1,), padding=(1,))\n",
            "        (conv2): Conv1d(256, 256, kernel_size=(3,), stride=(1,), padding=(1,))\n",
            "        (bnorm1): BatchNorm1d(256, eps=1e-05, momentum=0.1, affine=True, track_running_stats=True)\n",
            "        (bnorm2): BatchNorm1d(256, eps=1e-05, momentum=0.1, affine=True, track_running_stats=True)\n",
            "      )\n",
            "    )\n",
            "  )\n",
            "  (resblock3): ResBlock(\n",
            "    (block0): BaseBlock(\n",
            "      (conv1): Conv1d(256, 512, kernel_size=(3,), stride=(2,), padding=(1,))\n",
            "      (conv2): Conv1d(512, 512, kernel_size=(3,), stride=(1,), padding=(1,))\n",
            "      (convd): Conv1d(256, 512, kernel_size=(1,), stride=(2,))\n",
            "      (bnorm1): BatchNorm1d(512, eps=1e-05, momentum=0.1, affine=True, track_running_stats=True)\n",
            "      (bnorm2): BatchNorm1d(512, eps=1e-05, momentum=0.1, affine=True, track_running_stats=True)\n",
            "    )\n",
            "    (res): ModuleList(\n",
            "      (0): BaseBlock(\n",
            "        (conv1): Conv1d(512, 512, kernel_size=(3,), stride=(1,), padding=(1,))\n",
            "        (conv2): Conv1d(512, 512, kernel_size=(3,), stride=(1,), padding=(1,))\n",
            "        (bnorm1): BatchNorm1d(512, eps=1e-05, momentum=0.1, affine=True, track_running_stats=True)\n",
            "        (bnorm2): BatchNorm1d(512, eps=1e-05, momentum=0.1, affine=True, track_running_stats=True)\n",
            "      )\n",
            "      (1): BaseBlock(\n",
            "        (conv1): Conv1d(512, 512, kernel_size=(3,), stride=(1,), padding=(1,))\n",
            "        (conv2): Conv1d(512, 512, kernel_size=(3,), stride=(1,), padding=(1,))\n",
            "        (bnorm1): BatchNorm1d(512, eps=1e-05, momentum=0.1, affine=True, track_running_stats=True)\n",
            "        (bnorm2): BatchNorm1d(512, eps=1e-05, momentum=0.1, affine=True, track_running_stats=True)\n",
            "      )\n",
            "      (2): BaseBlock(\n",
            "        (conv1): Conv1d(512, 512, kernel_size=(3,), stride=(1,), padding=(1,))\n",
            "        (conv2): Conv1d(512, 512, kernel_size=(3,), stride=(1,), padding=(1,))\n",
            "        (bnorm1): BatchNorm1d(512, eps=1e-05, momentum=0.1, affine=True, track_running_stats=True)\n",
            "        (bnorm2): BatchNorm1d(512, eps=1e-05, momentum=0.1, affine=True, track_running_stats=True)\n",
            "      )\n",
            "    )\n",
            "  )\n",
            "  (avgpool): AdaptiveAvgPool1d(output_size=1)\n",
            "  (l1): Linear(in_features=512, out_features=2, bias=True)\n",
            ")\n"
          ],
          "name": "stdout"
        }
      ]
    },
    {
      "cell_type": "code",
      "metadata": {
        "id": "n0Rkx6XfQXPW",
        "colab": {
          "base_uri": "https://localhost:8080/",
          "height": 52
        },
        "outputId": "97edbcc3-61d2-44a3-b6b0-fa2e9dd0952a"
      },
      "source": [
…
